…
e, lr_logits=0.01, num_tta_steps=100, dont_skip_first=False, temp=0.5, hard=False, no_validate=False, no_cuda=False, var=5e-07, encoder_dropout=0.0, decoder_dropout=0.0, no_factor=False, f='C:\\Users\\GwenH\\AppData\\Roaming\\jupyter\\runtime\\kernel-6d875c72-16b0-4bae-b875-98773a0b0b7b.json', test=True, device=device(type='cuda', index=0), cuda=True, factor=True, validate=True, shuffle_unobserved=True, skip_first=True, use_encoder=True, time='20221108-090152', num_GPU=1, batch_size_multiGPU=32, log_path='logs\\20221108-090152')
DataParallel(
  (module): MLPEncoder(
    (mlp1): MLP(
      (fc1): Linear(in_features=1680, out_features=256, bias=True)
      (fc2): Linear(in_features=256, out_features=256, bias=True)
      (bn): BatchNorm1d(256, eps=1e-05, momentum=0.1, affine=True, track_running_stats=True)
    )
    (mlp2): MLP(
      (fc1): Linear(in_features=512, out_features=256, bias=True)
      (fc2): Linear(in_features=256, out_features=256, bias=True)
      (bn): BatchNorm1d(256, eps=1e-05, momentum=0.1, affine=True, track_running_stats=True)
    )
    (mlp3): MLP(
      (fc1): Linear(in_features=256, out_features=256, bias=True)
      (fc2): Linear(in_features=256, out_features=256, bias=True)
      (bn): BatchNorm1d(256, eps=1e-05, momentum=0.1, affine=True, track_running_stats=True)
    )
    (mlp4): MLP(
      (fc1): Linear(in_features=768, out_features=256, bias=True)
      (fc2): Linear(in_features=256, out_features=256, bias=True)
      (bn): BatchNorm1d(256, eps=1e-05, momentum=0.1, affine=True, track_running_stats=True)
    )
    (fc_out): Linear(in_features=256, out_features=2, bias=True)
  )
)
DataParallel(
  (module): MLPDecoder(
    (msg_fc1): ModuleList(
      (0): Linear(in_features=20, out_features=256, bias=True)
      (1): Linear(in_features=20, out_features=256, bias=True)
    )
    (msg_fc2): ModuleList(
      (0): Linear(in_features=256, out_features=256, bias=True)
      (1): Linear(in_features=256, out_features=256, bias=True)
    )
    (out_fc1): Linear(in_features=266, out_features=256, bias=True)
    (out_fc2): Linear(in_features=256, out_features=256, bias=True)
    (out_fc3): Linear(in_features=256, out_features=10, bias=True)
  )
)
0 train	 	loss_kl -1.1914337277 	acc 0.5088010204 	auroc 0.5047260174 	loss_nll 419127622.3999999762 	loss_mse 0.2509746164 	loss 419127622.3999999762 	inference time 0.6629563808 	time: 3.5312s 	
0 validate	 	loss_kl -1.8386759758 	acc 0.4875000000 	auroc 0.4877267441 	loss_nll 302087088.0000000000 	loss_mse 0.1808904558 	loss 302087088.0000000000 	inference time 0.0658235550 	time: 2.2729s 	
…
