…
e, lr_logits=0.01, num_tta_steps=100, dont_skip_first=False, temp=0.5, hard=False, no_validate=False, no_cuda=False, var=5e-07, encoder_dropout=0.0, decoder_dropout=0.0, no_factor=False, f='C:\\Users\\GwenH\\AppData\\Roaming\\jupyter\\runtime\\kernel-98e3a0cb-ff6b-4c5e-988b-840e7369adbb.json', test=True, device=device(type='cuda', index=0), cuda=True, factor=True, validate=True, shuffle_unobserved=True, skip_first=True, use_encoder=True, time='20221106-201437', num_GPU=1, batch_size_multiGPU=32, log_path='logs\\20221106-201437')
DataParallel(
  (module): MLPEncoder(
    (mlp1): MLP(
      (fc1): Linear(in_features=264, out_features=256, bias=True)
      (fc2): Linear(in_features=256, out_features=256, bias=True)
      (bn): BatchNorm1d(256, eps=1e-05, momentum=0.1, affine=True, track_running_stats=True)
    )
    (mlp2): MLP(
      (fc1): Linear(in_features=512, out_features=256, bias=True)
      (fc2): Linear(in_features=256, out_features=256, bias=True)
      (bn): BatchNorm1d(256, eps=1e-05, momentum=0.1, affine=True, track_running_stats=True)
    )
    (mlp3): MLP(
      (fc1): Linear(in_features=256, out_features=256, bias=True)
      (fc2): Linear(in_features=256, out_features=256, bias=True)
      (bn): BatchNorm1d(256, eps=1e-05, momentum=0.1, affine=True, track_running_stats=True)
    )
    (mlp4): MLP(
      (fc1): Linear(in_features=768, out_features=256, bias=True)
      (fc2): Linear(in_features=256, out_features=256, bias=True)
      (bn): BatchNorm1d(256, eps=1e-05, momentum=0.1, affine=True, track_running_stats=True)
    )
    (fc_out): Linear(in_features=256, out_features=2, bias=True)
  )
)
DataParallel(
  (module): MLPDecoder(
    (msg_fc1): ModuleList(
      (0): Linear(in_features=22, out_features=256, bias=True)
      (1): Linear(in_features=22, out_features=256, bias=True)
    )
    (msg_fc2): ModuleList(
      (0): Linear(in_features=256, out_features=256, bias=True)
      (1): Linear(in_features=256, out_features=256, bias=True)
    )
    (out_fc1): Linear(in_features=267, out_features=256, bias=True)
    (out_fc2): Linear(in_features=256, out_features=256, bias=True)
    (out_fc3): Linear(in_features=256, out_features=11, bias=True)
  )
)
0 train	 	loss_kl -0.4722644167 	acc 0.4987780240 	auroc 0.4981517636 	loss_nll 5363315.1870437954 	loss_mse 0.0211988730 	loss 5363314.7664233577 	inference time 0.0376510829 	time: 7.9477s 	
0 validate	 	loss_kl -0.2240559138 	acc 0.5010610766 	auroc 0.5001659425 	loss_nll 2566912.4986413042 	loss_mse 0.0101458985 	loss 2566912.2717391304 	inference time 0.0352535351 	time: 3.9315s 	
…
