…
e, lr_logits=0.01, num_tta_steps=100, dont_skip_first=False, temp=0.5, hard=False, no_validate=False, no_cuda=False, var=5e-07, encoder_dropout=0.0, decoder_dropout=0.0, no_factor=False, f='C:\\Users\\GwenH\\AppData\\Roaming\\jupyter\\runtime\\kernel-3250e4a8-7288-4f8b-a679-09eec122358f.json', test=True, device=device(type='cuda', index=0), cuda=True, factor=True, validate=True, shuffle_unobserved=True, skip_first=True, use_encoder=True, time='20221106-171315', num_GPU=1, batch_size_multiGPU=32, log_path='logs\\20221106-171315')
DataParallel(
  (module): MLPEncoder(
    (mlp1): MLP(
      (fc1): Linear(in_features=240, out_features=256, bias=True)
      (fc2): Linear(in_features=256, out_features=256, bias=True)
      (bn): BatchNorm1d(256, eps=1e-05, momentum=0.1, affine=True, track_running_stats=True)
    )
    (mlp2): MLP(
      (fc1): Linear(in_features=512, out_features=256, bias=True)
      (fc2): Linear(in_features=256, out_features=256, bias=True)
      (bn): BatchNorm1d(256, eps=1e-05, momentum=0.1, affine=True, track_running_stats=True)
    )
    (mlp3): MLP(
      (fc1): Linear(in_features=256, out_features=256, bias=True)
      (fc2): Linear(in_features=256, out_features=256, bias=True)
      (bn): BatchNorm1d(256, eps=1e-05, momentum=0.1, affine=True, track_running_stats=True)
    )
    (mlp4): MLP(
      (fc1): Linear(in_features=768, out_features=256, bias=True)
      (fc2): Linear(in_features=256, out_features=256, bias=True)
      (bn): BatchNorm1d(256, eps=1e-05, momentum=0.1, affine=True, track_running_stats=True)
    )
    (fc_out): Linear(in_features=256, out_features=2, bias=True)
  )
)
DataParallel(
  (module): MLPDecoder(
    (msg_fc1): ModuleList(
      (0): Linear(in_features=20, out_features=256, bias=True)
      (1): Linear(in_features=20, out_features=256, bias=True)
    )
    (msg_fc2): ModuleList(
      (0): Linear(in_features=256, out_features=256, bias=True)
      (1): Linear(in_features=256, out_features=256, bias=True)
    )
    (out_fc1): Linear(in_features=266, out_features=256, bias=True)
    (out_fc2): Linear(in_features=256, out_features=256, bias=True)
    (out_fc3): Linear(in_features=256, out_features=10, bias=True)
  )
)
0 train	 	loss_kl -1.1919419050 	acc 0.5029761905 	auroc 0.5043751006 	loss_nll 17837117.0928571410 	loss_mse 0.0775526784 	loss 17837115.9785714298 	inference time 0.0736031124 	time: 3.3032s 	
0 validate	 	loss_kl -0.4789003829 	acc 0.4997901404 	auroc 0.5005961078 	loss_nll 5355642.8958333330 	loss_mse 0.0232854029 	loss 5355642.3958333330 	inference time 0.0442150633 	time: 2.8504s 	
…
