…
e, lr_logits=0.01, num_tta_steps=100, dont_skip_first=False, temp=0.5, hard=False, no_validate=False, no_cuda=False, var=5e-07, encoder_dropout=0.0, decoder_dropout=0.0, no_factor=False, f='C:\\Users\\GwenH\\AppData\\Roaming\\jupyter\\runtime\\kernel-98e3a0cb-ff6b-4c5e-988b-840e7369adbb.json', test=True, device=device(type='cuda', index=0), cuda=True, factor=True, validate=True, shuffle_unobserved=True, skip_first=True, use_encoder=True, time='20221106-192314', num_GPU=1, batch_size_multiGPU=32, log_path='logs\\20221106-192314')
DataParallel(
  (module): MLPEncoder(
    (mlp1): MLP(
      (fc1): Linear(in_features=240, out_features=256, bias=True)
      (fc2): Linear(in_features=256, out_features=256, bias=True)
      (bn): BatchNorm1d(256, eps=1e-05, momentum=0.1, affine=True, track_running_stats=True)
    )
    (mlp2): MLP(
      (fc1): Linear(in_features=512, out_features=256, bias=True)
      (fc2): Linear(in_features=256, out_features=256, bias=True)
      (bn): BatchNorm1d(256, eps=1e-05, momentum=0.1, affine=True, track_running_stats=True)
    )
    (mlp3): MLP(
      (fc1): Linear(in_features=256, out_features=256, bias=True)
      (fc2): Linear(in_features=256, out_features=256, bias=True)
      (bn): BatchNorm1d(256, eps=1e-05, momentum=0.1, affine=True, track_running_stats=True)
    )
    (mlp4): MLP(
      (fc1): Linear(in_features=768, out_features=256, bias=True)
      (fc2): Linear(in_features=256, out_features=256, bias=True)
      (bn): BatchNorm1d(256, eps=1e-05, momentum=0.1, affine=True, track_running_stats=True)
    )
    (fc_out): Linear(in_features=256, out_features=2, bias=True)
  )
)
DataParallel(
  (module): MLPDecoder(
    (msg_fc1): ModuleList(
      (0): Linear(in_features=20, out_features=256, bias=True)
      (1): Linear(in_features=20, out_features=256, bias=True)
    )
    (msg_fc2): ModuleList(
      (0): Linear(in_features=256, out_features=256, bias=True)
      (1): Linear(in_features=256, out_features=256, bias=True)
    )
    (out_fc1): Linear(in_features=266, out_features=256, bias=True)
    (out_fc2): Linear(in_features=256, out_features=256, bias=True)
    (out_fc3): Linear(in_features=256, out_features=10, bias=True)
  )
)
0 train	 	loss_kl -5.3366199834 	acc 0.4999503968 	auroc 0.5002144903 	loss_nll 175734306.8000000119 	loss_mse 0.7640621964 	loss 175734302.8000000119 	inference time 0.2566848142 	time: 12.0887s 	
0 validate	 	loss_kl -2.5222625534 	acc 0.4999581341 	auroc 0.4996314133 	loss_nll 30696532.1666666679 	loss_mse 0.1334631747 	loss 30696529.8333333321 	inference time 0.2172531684 	time: 4.9508s 	
…
