…
e, lr_logits=0.01, num_tta_steps=100, dont_skip_first=False, temp=0.5, hard=False, no_validate=False, no_cuda=False, var=5e-07, encoder_dropout=0.0, decoder_dropout=0.0, no_factor=False, f='C:\\Users\\GwenH\\AppData\\Roaming\\jupyter\\runtime\\kernel-2177a03f-718e-42fc-a144-2df26d174d50.json', test=True, device=device(type='cuda', index=0), cuda=True, factor=True, validate=True, shuffle_unobserved=True, skip_first=True, use_encoder=True, time='20221108-105258', num_GPU=1, batch_size_multiGPU=32, log_path='logs\\20221108-105258')
DataParallel(
  (module): MLPEncoder(
    (mlp1): MLP(
      (fc1): Linear(in_features=1848, out_features=256, bias=True)
      (fc2): Linear(in_features=256, out_features=256, bias=True)
      (bn): BatchNorm1d(256, eps=1e-05, momentum=0.1, affine=True, track_running_stats=True)
    )
    (mlp2): MLP(
      (fc1): Linear(in_features=512, out_features=256, bias=True)
      (fc2): Linear(in_features=256, out_features=256, bias=True)
      (bn): BatchNorm1d(256, eps=1e-05, momentum=0.1, affine=True, track_running_stats=True)
    )
    (mlp3): MLP(
      (fc1): Linear(in_features=256, out_features=256, bias=True)
      (fc2): Linear(in_features=256, out_features=256, bias=True)
      (bn): BatchNorm1d(256, eps=1e-05, momentum=0.1, affine=True, track_running_stats=True)
    )
    (mlp4): MLP(
      (fc1): Linear(in_features=768, out_features=256, bias=True)
      (fc2): Linear(in_features=256, out_features=256, bias=True)
      (bn): BatchNorm1d(256, eps=1e-05, momentum=0.1, affine=True, track_running_stats=True)
    )
    (fc_out): Linear(in_features=256, out_features=2, bias=True)
  )
)
DataParallel(
  (module): MLPDecoder(
    (msg_fc1): ModuleList(
      (0): Linear(in_features=22, out_features=256, bias=True)
      (1): Linear(in_features=22, out_features=256, bias=True)
    )
    (msg_fc2): ModuleList(
      (0): Linear(in_features=256, out_features=256, bias=True)
      (1): Linear(in_features=256, out_features=256, bias=True)
    )
    (out_fc1): Linear(in_features=267, out_features=256, bias=True)
    (out_fc2): Linear(in_features=256, out_features=256, bias=True)
    (out_fc3): Linear(in_features=256, out_features=11, bias=True)
  )
)
0 train	 	loss_kl -1.7235819697 	acc 0.4991071429 	auroc 0.4995107253 	loss_nll 211416192.0000000000 	loss_mse 0.1150877466 	loss 211416192.0000000000 	inference time 0.2197393537 	time: 5.1119s 	
0 validate	 	loss_kl -0.4844087958 	acc 0.4972363946 	auroc 0.4963266714 	loss_nll 103939377.1428571492 	loss_mse 0.0565810438 	loss 103939377.1428571492 	inference time 0.1045774392 	time: 2.8962s 	
…
